model/model.pth (torch, 7647 bytes, 3 tensors)

input.0.weight f4 [256, 4]
-0.3952346 -0.16854493 0.08430116 0.029799154 0.31218466 0.21510166 -0.2154056 0.022699317
0.12079266 -0.005705133 -0.1399762 -0.02965103 -0.09055411 0.05275317 -0.16423588 -0.024325753
0.020379478 -0.23272647 -0.06680992 0.070737675 0.0058427453 -0.12619978 0.007226462 -0.0131599745
0.012904584 -0.122494474 -0.094229415 -0.07651723 0.06903107 -0.3874525 -0.13253921 0.07179741
0.1265252 -0.11736381 0.04782337 -0.12645657 -0.02084917 -0.1819408 0.00986737 -0.027676875
0.119159006 0.12452382 0.22678955 0.13473734 0.10134199 0.13624954 0.27876195 0.095873795
-0.022392347 -0.09318432 -0.08596065 -0.079662204 0.02161862 -0.012576325 0.01910815 -0.045184646
0.12784722 0.14883277 0.07915061 0.11805177 -0.0007828474 0.06484943 0.038265273 -0.09598173
0.062776126 -0.019944789 0.05848117 0.068206914 -0.07965695 0.12991598 -0.05137489 -0.08988819
-0.023902044 -0.0518325 0.042303834 -0.12588221 -0.22271279 0.19824411 0.3719392 0.18341778
-0.13290097 0.019938048 -0.14156975 -0.009840183 0.118750714 -0.1516674 0.054248914 -0.0076951627
0.22436619 -0.04939847 0.1574569 -0.16754399 -0.20235921 0.03390039 -0.06968895 0.08340936
-0.323463 -0.11390005 0.1682515 -0.29156062 0.13047674 -0.07811948 -0.011876479 -0.062189497
0.095538005 -0.14836349 0.0788156 0.09127217 0.06743569 0.117070936 0.10530295 0.012602373
-0.15033446 0.12337375 0.029597906 -0.09667621 -0.2550968 0.14559422 0.065427855 0.0979266
0.055321682 0.31342766 0.32203472 0.27202517 -0.099044465 -0.29149708 -0.066117555 -0.235834
0.08279993 -0.06702208 -0.2094458 0.00012238086 -0.06672856 -0.11276321 -0.123557955 -0.10612292
0.11231109 -0.059669163 -0.061602928 0.031208418 0.09659429 -0.10049072 -0.13182646 -0.062515624
-0.010702325 -0.12480092 -0.038410652 -0.030829197 -0.54712784 0.19277734 0.12472273 -0.030968597
0.051945165 -0.073874995 -0.13670015 -0.048325405 -0.39350095 -0.09201317 0.062602006 0.09333946
0.0010340951 0.13398416 0.14745606 0.109347336 -0.08675575 0.015861154 -0.14600508 -0.052466854
-0.09697378 -0.09831248 0.012740687 -0.08050229 0.13986064 0.26637954 0.10739268 0.15858959
-0.06701811 0.077133864 -0.027262447 0.08265234 0.07191455 -0.117566094 0.03265301 0.07579304
-0.071496986 -0.10358841 -0.07485932 -0.013442382 -0.06702054 0.012410012 0.042957492 0.13376567
0.03606359 0.15017967 0.20028171 0.21377902 -0.09671903 -0.011856334 0.30506033 0.031908296
-0.162359 -0.1844479 0.0073127314 -0.15401602 -0.12792335 -0.16844869 0.008543465 0.092357874
0.15024601 0.015269887 0.16284357 0.11068433 -0.017805185 0.16201763 0.27801597 0.17683885
-0.2324698 -0.2425419 -0.27039948 0.07397138 0.04715951 -0.13322325 -0.06692635 0.0033184509
0.9184157 -0.30331028 0.19886322 -0.024593297 0.0035387278 -0.12848635 -0.030574866 -0.077672765
-0.020322815 0.04428023 -0.1314276 -0.11172525 0.042374514 -0.110425785 0.2081779 0.028246406
0.21439907 -0.05886562 0.07860098 0.10984013 0.06720297 -0.13424058 0.019840822 -0.14782573
-0.20442389 0.0147008365 0.21755986 0.17878805 -0.120268166 0.0232459 -0.108980566 -0.023560822
00000000: 315c cabe 0b97 2cbe 16a6 ac3d 5b1d f43c
00000010: abd6 9f3e 9c43 5c3e 4993 5cbe ebf3 b93c
00000020: 2462 f73d 20f2 babb ec55 0fbe b8e6 f2bc
00000030: 6f74 b9bd b513 583d 732d 28be cd46 c7bc
00000040: ddf2 a63c d94f 6ebe a4d3 88bd eade 903d
00000050: 8074 bf3b 843a 01be f5cb ec3b ef9c 57bc
00000060: c06d 533c 62de fabd 5afb c0bd 11b5 9cbd
00000070: 2960 8d3d 2d60 c6be 5cb8 07be 850a 933d
00000080: d28f 013e 705c f0bd 70e2 433d d57d 01be
00000090: e1cb aabc b04e 3abe c0aa 213c 9dba e2bc
000000a0: a309 f43d 5806 ff3d 853b 683e 96f8 093e
000000b0: 648c cf3d 0085 0b3e e3b9 8e3e 7b59 c43d
000000c0: 2870 b7bc 6cd7 bebd 230c b0bd f025 a3bd
000000d0: 8819 b13c ee0c 4ebc b288 9c3c 8913 39bd
000000e0: 62ea 023e 9e67 183e b719 a23d 20c5 f13d
000000f0: 0038 4dba c7cf 843d 0cbc 1c3d 1292 c4bd
00000100: c590 803d 4163 a3bc f489 6f3d 11b0 8b3d
00000110: 2f23 a3bd b208 053e 7a6e 52bd 4d17 b8bd
00000120: 38ce c3bc 514e 54bd c946 2d3d 44e7 00be
00000130: d20e 64be 8100 4b3e d16e be3e dfd1 3b3e
00000140: 3117 08be 1e55 a33c a9f7 10be b838 21bc
00000150: 9333 f33d b34e 1bbe 1c34 5e3d b427 fcbb
00000160: 40c0 653e 0d56 4abd 623c 213e a790 2bbe
00000170: 4137 4fbe 23db 0a3d 15b9 8ebd 87d2 aa3d
00000180: f19c a5be 6e44 e9bd 1f4a 2c3e 6f47 95be
00000190: b29b 053e 1bfd 9fbd 9095 42bc 6aba 7ebd
000001a0: 6ea9 c33d 99ec 17be 136a a13d e7ec ba3d
000001b0: b91b 8a3d e3c2 ef3d 13a9 d73d 2f7a 4e3c
000001c0: 47f1 19be 60ab fc3d 4f77 f23c 2dfe c5bd
000001d0: 0c9c 82be a716 153e 0aff 853d be8d c83d
000001e0: fd98 623d 9779 a03e bce1 a43e e246 8b3e
000001f0: d3d7 cabd 1b3f 95be a468 87bd 787e 71be
00000200: 0293 a93d df42 89bd f678 56be 5d53 0039
00000210: fca8 88bd 66f0 e6bd f40b fdbd f956 d9bd
00000220: 5b03 e63d a767 74bd 5a53 7cbd cca8 ff3c
00000230: 3ad3 c53d 14ce cdbd 84fd 06be 3108 80bd
00000240: ce58 2fbc a097 ffbd 7d54 1dbd 838d fcbc
00000250: 9210 0cbf 6c67 453e a16e ff3d dbb1 fdbc
00000260: 74c4 543d c64b 97bd 20fb 0bbe dcf0 45bd
00000270: f578 c9be 6771 bcbd 7b35 803d c228 bf3d
00000280: 798a 873a 2533 093e b9fe 163e 7ff1 df3d
00000290: 00ad b1bd 40ef 813c 5b82 15be 7ce7 56bd
000002a0: 309a c6bd 0e58 c9bd 50be 503c 62de a4bd
000002b0: a137 0f3e e662 883e b2f0 db3d 4f65 223e
000002c0: ca40 89bd 5cf8 9d3d 7f55 dfbc a145 a93d
000002d0: f047 933d 7ec6 f0bd 2abf 053d 6239 9b3d
000002e0: 036d 92bd 2926 d4bd d84f 99bd 703d 5cbc
000002f0: 1142 89bd 5d53 4b3c 32f4 2f3d def9 083e
00000300: 6ab7 133d b3c8 193e a616 4d3e e3e8 5a3e
00000310: a014 c6bd 1241 42bc de30 9c3e 46b2 023d
00000320: 7041 26be e9df 3cbe a39f ef3b 60b6 1dbe
00000330: 57fe 02be d07d 2cbe e4f9 0b3c 2026 bd3d
00000340: 17da 193e 8c2e 7a3c 77c0 263e 77ae e23d
00000350: 2edc 91bc f3e7 253e 1c58 8e3e 3e15 353e
00000360: 900c 6ebe e75c 78be cd71 8abe 4f7e 973d
00000370: 552a 413d ad6b 08be af10 89bd 5e7a 593b
00000380: 4b1d 6b3f 7c4b 9bbe cda2 4b3e e277 c9bc
00000390: 00ea 673b ed91 03be 2478 fabc e612 9fbd
000003a0: 087c a6bc 305f 353d f594 06be 35d0 e4bd
000003b0: e690 2d3d ea26 e2bd 962c 553e 0265 e73c
000003c0: 6e8b 5b3e 141d 71bd 8df9 a03d ddf3 e03d
000003d0: b6a1 893d 5d76 09be 3889 a23c a15f 17be
000003e0: 7f54 51be c7db 703c 03c8 5e3e 3714 373e
000003f0: 284f f6bd 306e be3c 3431 dfbd a002 c1bc

input.0.bias f4 [256]
5.0145454 -1.6126008 0.0 -0.0472206 3.9825191 -0.033965673 0.0 3.4288368
-0.18586084 -0.057144854 -2.184036 -2.3741264 0.0 -0.019254861 -2.2491944 -0.019971125
-0.44816706 0.0 -0.016663997 0.010199653 -0.017388435 3.83463 -0.6803295 3.1992314
0.24601398 0.0 1.6279377 -3.1359015 -0.006002373 -1.6959956 -1.9984301 2.1817675
-0.105774835 0.0 4.276823 0.0 -0.030325359 -1.1151259 0.0 3.9497273
-2.5226018 0.0 0.0 -2.6919003 -0.9380133 4.2832217 0.0 4.0192394
-2.7574713 2.484877 -0.013925423 4.171044 -2.3423746 -2.5584095 5.544948 -0.029025754
0.027812546 0.0 0.0 4.203777 0.0047913003 0.0 -2.1943576 0.0
0.0 -0.11935335 0.0 -0.0067020743 2.8118205 -3.2107651 0.0 0.0
-3.345631 -1.074626 0.0 4.1645665 0.0 3.620484 -2.3231294 -2.7306054
0.0 0.0 3.3459759 -2.0497959 3.6018472 4.453401 -0.009796725 0.0
-0.0076328367 3.821908 4.051473 5.657262 4.2851844 0.0 -2.412497 -0.49679214
-2.5383184 -0.09286495 -0.02674406 2.229404 0.0 0.0 2.8835623 -3.1023557
-0.07877304 0.0 4.0896378 0.0 0.0 0.0 0.0 0.0
-2.9281418 -3.2788155 0.0 -3.5525255 -2.934079 2.722008 -0.11823277 2.172331
-0.23895164 0.38286495 -0.5670278 0.0 -2.9141648 -2.7357512 -3.3007522 -3.1296394
-0.04353259 -0.41055506 -0.0962147 -2.3255496 -0.007892949 0.0 -0.031395998 3.7172976
-1.8517377 -2.7473664 0.0 0.0 3.2591453 3.5310647 3.9516366 3.9829042
4.0215416 0.28867784 -2.4276576 -0.022898236 0.0 0.0 -1.2857901 -1.464687
1.094658 -3.1525507 -3.2542522 -0.11869005 3.610333 -3.0925567 0.0 -0.042023275
-0.021684146 5.9619675 3.5622096 3.7421927 0.07054559 -0.35083944 -3.1923628 3.735348
-1.702198 -3.2655902 0.0 -0.005577894 -0.39557177 2.023186 0.0 3.2768831
-0.014914935 0.0 -0.03981992 -2.5393543 3.9428186 4.751817 -2.2991774 3.6668158
0.0 4.0626173 0.0 3.913053 -0.86473835 -0.12371727 2.400175 -0.010661042
-2.0751474 4.2706003 -2.6649923 3.3842814 3.516148 0.0 -2.3966215 0.0
-1.6347145 3.745092 0.0 4.025164 3.817659 -3.3355613 -0.9736187 3.4529457
-2.6362941 3.6797864 -3.1224287 0.0 -0.48279735 0.0 -2.9109628 3.9622078
3.4647317 0.0 -3.2985075 -1.2226865 -1.9383751 4.41144 2.9317334 -2.503905
-2.240839 4.145659 -2.927774 0.0 1.5916907 0.0 0.0 0.0
-0.028631276 -0.061361197 2.426874 -2.1217122 0.0 0.0 3.1718338 4.308982
-0.026807265 0.0 -0.083252296 -0.012780291 4.3345485 0.0 -0.025397299 0.0
3.8354619 0.0 0.0 0.0 4.958582 -0.011282276 0.0 -1.4894398
00000000: 2877 a040 b469 cebf 0000 0000 636a 41bd
00000010: 98e1 7e40 971f 0bbd 0000 0000 1072 5b40
00000020: 4e52 3ebe b910 6abd 3fc7 0bc0 b0f1 17c0
00000030: 0000 0000 5fbc 9dbc cdf2 0fc0 7c9a a3bc
00000040: 2776 e5be 0000 0000 ef82 88bc 721c 273c
00000050: 3172 8ebc 946a 7540 132a 2ebf 35c0 4c40
00000060: 17eb 7b3e 0000 0000 4360 d03f 9cb2 48c0
00000070: 8eaf c4bb 6216 d9bf 8fcc ffbf 14a2 0b40
00000080: 7aa0 d8bd 0000 0000 bcdb 8840 0000 0000
00000090: e36c f8bc 72bc 8ebf 0000 0000 55c8 7c40
000000a0: 4f72 21c0 0000 0000 0000 0000 1848 2cc0
000000b0: a421 70bf 2710 8940 0000 0000 9c9d 8040
000000c0: 697a 30c0 3a08 1f40 7527 64bc 3179 8540
000000d0: 77e9 15c0 fbbc 23c0 3770 b140 6bc7 edbc
000000e0: 23d7 e33c 0000 0000 0000 0000 5785 8640
000000f0: 5700 9d3b 0000 0000 5b70 0cc0 0000 0000
00000100: 0000 0000 876f f4bd 0000 0000 139d dbbb
00000110: def4 3340 2d7d 4dc0 0000 0000 0000 0000
00000120: d11e 56c0 588d 89bf 0000 0000 2144 8540
00000130: 0000 0000 03b6 6740 27ae 14c0 3dc2 2ec0
00000140: 0000 0000 0000 0000 7824 5640 db2f 03c0
00000150: aa84 6640 4382 8e40 7182 20bc 0000 0000
00000160: e01c fabb 249a 7440 aba5 8140 4a08 b540
00000170: 3b20 8940 0000 0000 5a66 1ac0 8a5b febe
00000180: cf73 22c0 fb2f bebd 5c16 dbbc 8eae 0e40
00000190: 0000 0000 0000 0000 498c 3840 ff8c 46c0
000001a0: c253 a1bd 0000 0000 50de 8240 0000 0000
000001b0: 0000 0000 0000 0000 0000 0000 0000 0000
000001c0: ad66 3bc0 1dd8 51c0 0000 0000 945c 63c0
000001d0: f3c7 3bc0 6135 2e40 0624 f2bd 7907 0b40
000001e0: bdaf 74be e006 c43e bc28 11bf 0000 0000
000001f0: ad81 3ac0 8c16 2fc0 863f 53c0 034c 48c0
00000200: 3b4f 32bd 4634 d2be 360c c5bd ced5 14c0
00000210: 6d51 01bc 0000 0000 1799 00bd 34e8 6d40
00000220: be05 edbf dad4 2fc0 0000 0000 0000 0000
00000230: d695 5040 f7fc 6140 9de7 7c40 e7e7 7e40
00000240: 78b0 8040 95cd 933e be5e 1bc0 1595 bbbc
00000250: 0000 0000 0000 0000 c594 a4bf dd7a bbbf
00000260: c11d 8c3f 64c3 49c0 ab45 50c0 c513 f3bd
00000270: b20f 6740 73ec 45c0 0000 0000 9920 2cbd
00000280: f3a2 b1bc 70c8 be40 3efb 6340 1680 6f40
00000290: 357a 903d 3aa1 b3be ac4f 4cc0 f10f 6f40
000002a0: a0e1 d9bf 6eff 50c0 0000 0000 c4c6 b6bb
000002b0: 6288 cabe e17b 0140 0000 0000 74b8 5140
000002c0: c65d 74bc 0000 0000 361a 23bd c884 22c0
000002d0: 2457 7c40 e30e 9840 b925 13c0 1cad 6a40
000002e0: 0000 0000 f600 8240 0000 0000 766f 7a40
000002f0: 7e5f 5dbf 7b5f fdbd 789c 1940 a7ab 2ebc
00000300: 37cf 04c0 c2a8 8840 3c8f 2ac0 1198 5840
00000310: 9208 6140 0000 0000 3f62 19c0 0000 0000
00000320: 533e d1bf 96af 6f40 0000 0000 25ce 8040
00000330: 8654 7440 d679 55c0 133f 79bf 10fd 5c40
00000340: 0bb9 28c0 9f81 6b40 dfd5 47c0 0000 0000
00000350: 3731 f7be 0000 0000 374d 3ac0 d094 7d40
00000360: 2abe 5d40 0000 0000 bf1a 53c0 fe80 9cbf
00000370: ad1c f8bf 842a 8d40 85a1 3b40 fb3f 20c0
00000380: e869 0fc0 3da9 8440 a660 3bc0 0000 0000
00000390: 85bc cb3f 0000 0000 0000 0000 0000 0000
000003a0: 238c eabc e155 7bbd e751 1b40 22ca 07c0
000003b0: 0000 0000 0000 0000 53ff 4a40 2ee3 8940
000003c0: e99a dbbc 0000 0000 2e80 aabd 6d64 51bc
000003d0: 9fb4 8a40 0000 0000 ff0d d0bc 0000 0000
000003e0: 3578 7540 0000 0000 0000 0000 0000 0000
000003f0: b4ac 9e40 4cd9 38bc 0000 0000 f7a5 bebf

output.weight f4 [1, 256]
4.5531054 3.574849 -0.037884854 3.1867623 0.017819365 2.9841635 3.4824398 -0.13004443
-0.11528678 -0.00019798541 0.14879538 -0.8564904 3.138104 2.3134778 -1.8669577 0.31524858
2.2164168 0.20674576 6.591281 -0.07018946 -0.9515531 3.5383484 0.17828082 6.901042
-0.23006935 0.6211653 0.21428405 1.2767661 2.1294816 1.6138121 2.0822418 1.2739538
2.6364958 0.4819978 0.6207325 -0.26240999 0.08043348 -2.4414415 0.19290656 0.11917827
0.11713937 -0.41928464 -0.43709642 -0.056901056 -0.035044327 -0.210343 4.304236 4.0972095
-0.38756812 -0.056754943 0.02539207 0.30320942 3.8817306 5.310059 -0.01654068 -0.13024923
4.7103143 0.09069822 0.025813181 3.0504184 7.128725 2.0743918 0.6317249 6.687212
0.17732346 0.98623514 3.884311 -0.020877168 4.3641953 0.017350323 0.13519715 3.869872
0.5216875 -1.2852545 0.1477073 -1.3209295 4.4694834 0.45720693 0.13768218 -0.055706695
-0.24040875 0.10596547 1.626388 -1.5500164 0.09802415 1.0580155 0.29273534 0.789515
-0.2037037 3.634216 0.5319534 2.3155785 -1.2432765 -0.058638487 1.9703943 -0.0684867
2.8645191 0.09716019 -1.3883309 -0.8484066 -0.25423473 2.729678 1.1302841 2.8413095
0.10373182 1.8438084 -0.52345514 0.18885131 -0.42620322 1.5730728 0.064887285 -0.15063511
-0.09228429 0.057920832 0.46842408 0.28463462 0.044683255 0.5865168 0.07445394 -0.34871948
7.115777 0.055365298 2.4708738 -0.754292 0.78779125 0.095124066 -0.10540757 2.901539
0.040178087 -0.9339594 -1.5249934 -0.13674341 3.7804184 -0.33508784 -0.60984546 6.39078
1.6053963 0.08482213 3.0001824 0.11114855 0.12217488 -1.5132526 -0.24082203 -0.019211957
-1.4772805 -1.5407847 -0.1659943 -0.030276807 0.46653184 0.068169765 0.576268 0.4903611
4.1623416 0.6835087 -0.040871996 -0.085881315 0.7053661 -0.30389294 3.4323235 0.27436167
2.56044 0.30635554 -0.17149477 -0.07383823 -0.202274 0.19205746 -0.22143985 2.807962
1.8702264 0.027727932 -0.01114311 3.6088006 4.6897264 0.14382279 0.17617448 -0.5726725
-0.45033565 -0.007330342 3.7281585 -0.48971227 6.5511317 0.82012135 0.06799474 -0.30650043
1.066299 -0.16921042 0.07395789 2.4042716 -1.5533061 3.358726 -0.5551253 -0.5389065
-0.09487866 -0.8902479 4.804261 -0.4224144 0.4115968 3.6180995 0.9066326 2.7102497
-0.06678247 0.11054531 0.034541428 0.086859204 0.35964015 2.2184176 0.55288196 4.598794
0.43953872 -0.95271534 2.6563158 1.2948658 0.41847923 -0.08978168 -0.16613786 -0.10747593
-0.35092276 0.1749842 -0.23274 -0.8940628 -1.4873687 -0.6212814 -1.450629 -0.037026424
3.3460722 1.0693048 1.8382206 2.0145178 0.21002494 3.7260494 0.20274574 0.8230054
3.7962086 3.715669 -1.2655131 0.2203681 6.189233 3.204735 0.31562555 1.3281744
-0.07389508 -1.7310169 -0.23215374 0.14328656 0.41795948 -0.18875027 1.4046311 0.20535474
1.1630454 -0.6701452 3.6857963 4.0710063 0.5748808 -0.021561837 0.2835848 -1.37074
00000000: 0ab3 9140 53ca 6440 262d 1bbd eaf3 4b40
00000010: ebf9 913c 89fc 3e40 4be0 5e40 5e2a 05be
00000020: 7a1b ecbd 4e9a 4fb9 d15d 183e f442 5bbf
00000030: b2d6 4840 0510 1440 78f8 eebf 4368 a13e
00000040: c6d9 0d40 29b5 533e c6eb d240 7ebf 8fbd
00000050: fc98 73bf 4d74 6240 3f8f 363e 56d5 dc40
00000060: 4d97 6bbe b004 1f3f 476d 5b3e 126d a33f
00000070: 6d49 0840 6591 ce3f 7343 0540 eb10 a33f
00000080: 59bc 2840 6ac8 f63e 53e8 1e3f 9a5a 86be
00000090: 4fba a43d 9440 1cc0 4c89 453e bd13 f43d
000000a0: c4e6 ef3d 7aac d6be 1acb dfbe 1511 69bd
000000b0: a48a 0fbd 2864 57be 4dbc 8940 571c 8340
000000c0: 546f c6be df77 68bd 0803 d03c 443e 9b3e
000000d0: 466e 7840 01ec a940 5280 87bc 0e60 05be
000000e0: e5ba 9640 fdbf b93d 2a76 d33c 0e3a 4340
000000f0: 841e e440 d6c2 0440 b9b8 213f a4fd d540
00000100: 4894 353e e879 7c3f 8d98 7840 9806 abbc
00000110: 7da7 8b40 4422 8e3c 1f71 0a3e fcab 7740
00000120: 508d 053f 3883 a4bf 9540 173e 3814 a9bf
00000130: 0206 8f40 0717 ea3e 8ffc 0c3e b42c 64bd
00000140: b62d 76be 6d04 d93d 7b2d d03f f066 c6bf
00000150: e3c0 c83d 0d6d 873f 68e1 953e a81d 4a3f
00000160: b497 50be ff96 6840 192e 083f 7032 1440
00000170: af23 9fbf e92e 70bd e135 fc3f c142 8cbd
00000180: 4854 3740 ecfb c63d d4b4 b1bf 2d31 59bf
00000190: 0e2b 82be 0bb3 2e40 26ad 903f 04d8 3540
000001a0: 5971 d43d ea01 ec3f 2801 06bf 3d62 413e
000001b0: 4f37 dabe 735a c93f a0e3 843d 1740 1abe
000001c0: 8cff bcbd 653e 6d3d 48d5 ef3e a1bb 913e
000001d0: ca05 373d f725 163f 4f7b 983d 5c8b b2be
000001e0: 72b4 e340 b9c6 623d cc22 1e40 4819 41bf
000001f0: b0ac 493f 68d0 c23d eddf d7bd d1b2 3940
00000200: c791 243d f717 6fbf fc32 c3bf 7706 0cbe
00000210: 60f2 7140 a290 abbe d51e 1cbf 4581 cc40
00000220: a07d cd3f 3ab7 ad3d fd02 4040 daa1 e33d
00000230: d336 fa3d 43b2 c1bf 0d9a 76be 6562 9dbc
00000240: 8717 bdbf 6f38 c5bf 69fa 29be 1107 f8bc
00000250: 43dd ee3e 979c 8b3d 4d86 133f 9c10 fb3e
00000260: e731 8540 6dfa 2e3f 6569 27bd 8be2 afbd
00000270: df92 343f db97 9bbe 30ab 5b40 2279 8c3e
00000280: 40de 2340 a2da 9c3e 539c 2fbe 7f38 97bd
00000290: ea20 4fbe b6aa 443e 21c1 62be a6b5 3340
000002a0: 9463 ef3f b025 e33c 9791 36bc 97f6 6640
000002b0: 3d12 9640 4846 133e 1567 343e aa9a 12bf
000002c0: 6592 e6be 5e33 f0bb 269a 6e40 91bb fabe
000002d0: dfa2 d140 79f3 513f d440 8b3d a0ed 9cbe
000002e0: 7c7c 883f 7f45 2dbe 3c77 973d 96df 1940
000002f0: bcd2 c6bf 5ef5 5640 b11c 0ebf c7f5 09bf
00000300: be4f c2bd 49e7 63bf 82bc 9940 b346 d8be
00000310: d1bc d23e f18e 6740 1319 683f bb74 2d40
00000320: 3fc5 88bd 9465 e23d 507b 0d3d 3de3 b13d
00000330: c122 b83e 8efa 0d40 ac89 0d3f 5229 9340
00000340: 380b e13e 27e5 73bf 1401 2a40 2abe a53f
00000350: e942 d63e 75df b7bd 0b20 2abe 571c dcbd
00000360: 26ac b3be 0f2f 333e 6553 6ebe 4de1 64bf
00000370: 1962 bebf 4c0c 1fbf 36ae b9bf 05a9 17bd
00000380: 0c26 5640 fbde 883f d04a eb3f dced 0040
00000390: c710 573e 9877 6e40 949c 4f3e 7bb0 523f
000003a0: 15f5 7240 85cd 6d40 55fc a1bf 2da8 613e
000003b0: 320e c640 611a 4d40 ac99 a13e 9e01 aa3f
000003c0: 4e56 97bd f691 ddbf b6b9 6dbe b6b9 123e
000003d0: c9fe d53e c047 41be f4ca b33f 8348 523e
000003e0: acde 943f a38e 2bbf 16e4 6b40 af45 8240
000003f0: 632b 133f 73a2 b0bc 0732 913e 6974 afbf
